…
        "colab": {
          "base_uri": "https://localhost:8080/"
        },
        "id": "Vlcm9VuG8BqW",
        "outputId": "9533d94c-93a7-4940-8879-d8b80cb3cb27"
      },
      "outputs": [
        {
          "output_type": "stream",
          "name": "stdout",
          "text": [
            "Model: \"sequential\"\n",
            "_________________________________________________________________\n",
            " Layer (type)                Output Shape              Param #   \n",
            "=================================================================\n",
            " conv2d (Conv2D)             (None, 28, 28, 24)        624       \n",
            "                                                                 \n",
            " conv2d_1 (Conv2D)           (None, 28, 28, 48)        10416     \n",
            "                                                                 \n",
            " conv2d_2 (Conv2D)           (None, 28, 28, 48)        20784     \n",
            "                                                                 \n",
            " dropout (Dropout)           (None, 28, 28, 48)        0         \n",
            "                                                                 \n",
            " conv2d_3 (Conv2D)           (None, 28, 28, 64)        27712     \n",
            "                                                                 \n",
            " max_pooling2d (MaxPooling2  (None, 14, 14, 64)        0         \n",
            " D)                                                              \n",
            "                                                                 \n",
            " conv2d_4 (Conv2D)           (None, 12, 12, 128)       73856     \n",
            "                                                                 \n",
            " conv2d_5 (Conv2D)           (None, 10, 10, 256)       295168    \n",
            "                                                                 \n",
            " dropout_1 (Dropout)         (None, 10, 10, 256)       0         \n",
            "                                                                 \n",
            " max_pooling2d_1 (MaxPoolin  (None, 5, 5, 256)         0         \n",
            " g2D)                                                            \n",
            "                                                                 \n",
            " flatten (Flatten)           (None, 6400)              0         \n",
            "                                                                 \n",
            " dense (Dense)               (None, 180)               1152180   \n",
            "                                                                 \n",
            " dropout_2 (Dropout)         (None, 180)               0         \n",
            "                                                                 \n",
            " dense_1 (Dense)             (None, 84)                15204     \n",
            "                                                                 \n",
            " dense_2 (Dense)             (None, 10)                850       \n",
            "                                                                 \n",
            "=================================================================\n",
            "Total params: 1596794 (6.09 MB)\n",
            "Trainable params: 1596794 (6.09 MB)\n",
            "Non-trainable params: 0 (0.00 Byte)\n",
            "_________________________________________________________________\n"
…
